mnist_cnn.pt (torch_old, 248584 bytes, 10 tensors)

convnet.c1.weight f4 [6, 1, 5, 5]
0	0x3d86c9f7	0.065814905
1	0xbe0457ac	-0.12924069
2	0xbe185885	-0.14877518
3	0xbe0077a0	-0.12545633
4	0xbed8e5ff	-0.42362973
5	0x3e04c55c	0.12965912
6	0x3d907052	0.070526734
7	0x3e62811a	0.22119561
8	0x3dc09057	0.09402531
9	0xbd210818	-0.03931436
10	0x3d9494d2	0.07254948
11	0x3e30eb09	0.17277159
12	0x3ea65d38	0.32492995
13	0x3e0a031a	0.13477746
14	0x3dc3e71c	0.09565565
15	0xbdaa2af4	-0.08308974
16	0x3d9beec8	0.07613903
17	0x3e01fdf6	0.12694535
18	0x3e950abb	0.2910975
19	0x3e375699	0.17904128
20	0xbe9c18ea	-0.30487758
21	0xbeb367f3	-0.35040244
22	0xbe5ec6cc	-0.21755522
23	0xbe4055c3	-0.18782715
24	0xbcc48b44	-0.023992188
25	0x3b18260f	0.0023216044
26	0x3e2ef273	0.17084675
27	0x3ddc14d5	0.10746161
28	0xbecec6a4	-0.40385926
29	0xbe020e0a	-0.12700668
30	0x3d9481e2	0.07251336
31	0x3e91c13e	0.28467745
32	0x3e160904	0.14651877
33	0xbecdd125	-0.40198627
34	0xbecf09b0	-0.40437078
35	0xbd61d3dc	-0.055133685
36	0x3ea97519	0.3309715
37	0x3d91d440	0.071205616
38	0xbbff6107	-0.007793549
39	0xbe4b2d18	-0.1984142
40	0x3e44771f	0.19186066
41	0x3ceff29a	0.029290486
42	0x3e9a3de4	0.30125344
43	0x3d5ab61a	0.05339632
44	0xbdffcb21	-0.12489916
45	0x3ca2a9ab	0.019856295
46	0xbdae576a	-0.08512767
47	0x3e192ae0	0.14957762
48	0x3d10d3dd	0.0353583
49	0xbc602025	-0.013679539
50	0xbed69dd5	-0.4191729
51	0xbe9e6be4	-0.3094169
52	0xbd5e4c2b	-0.05427186
53	0xbe0f5315	-0.13996537
54	0x3e1f6b10	0.15568185
55	0x3903398f	0.00012514576
56	0xbbae4559	-0.0053183255
57	0x3bc24b02	0.005929352
58	0x3e90310d	0.28162423
59	0x3e14ad40	0.14519215
60	0xbdb7f3d7	-0.08982056
61	0x3e911a13	0.28340206
62	0x3eb5a426	0.35476798
63	0x3ec37291	0.38173345
64	0xbd8c6520	-0.068552256
65	0x3dcc1cf2	0.099664584
66	0x3e15abf9	0.14616384
67	0x3e04d9e1	0.12973739
68	0xbde87cd4	-0.11351934
69	0xbe68b1e8	-0.22724116
70	0x3e0d00e6	0.13769874
71	0xbdcd6217	-0.10028475
72	0xbdf382a0	-0.11890149
73	0xbe8ab7a7	-0.2709324
74	0xbe53d534	-0.206868
75	0x3d41c3ed	0.04730599
76	0x3de0dd34	0.10979691
77	0x3e50cae3	0.20389895
78	0xbd3c3a98	-0.045954317
79	0x3e7a7f08	0.24462521
80	0xbe75722f	-0.23969339
81	0xbe6ace8e	-0.22930357
82	0xbcf017c1	-0.029308202
83	0x3c82fb5a	0.015988994
84	0x3e6ce57b	0.23134415
85	0xbe9a9d83	-0.30198297
86	0xbeb1d1a7	-0.34730265
87	0x3d90e0a1	0.070740946
88	0x3d1f3436	0.03886815
89	0x3e81fcf3	0.25388297
90	0xbe4cf1c6	-0.20014104
91	0xbeb35056	-0.3502223
92	0xbc0fe83f	-0.008783399
93	0x3e0d6044	0.13806254
94	0xbae4cb88	-0.0017455677
95	0xbe641fc0	-0.22277737
96	0xbca6d777	-0.020366414
97	0x3d11870a	0.035529174
98	0xbcb5312b	-0.022118172
99	0xbcf06892	-0.029346738
100	0x3e81954f	0.25309226
101	0xbd7f3de5	-0.062314887
102	0x3dc86bf0	0.097862124
103	0x3dc864c7	0.09784847
104	0xbddee4a0	-0.108834505
105	0xbe67c17c	-0.22632402
106	0x3e365118	0.17804372
107	0x3cbc461f	0.022982655
108	0x3e24a523	0.1607862
109	0x3d91f128	0.07126075
110	0xbd2ed060	-0.04267919
111	0x3e49cc8f	0.19706939
112	0x3e614481	0.21998788
113	0xbe21bb1b	-0.15794031
114	0xbb77fbe3	-0.0037839345
115	0x3dee0206	0.1162148
116	0x3e4577fc	0.19284052
117	0x3e05ed6a	0.13078848
118	0xbe405bcf	-0.18785022
119	0xbe6451fa	-0.22296897
120	0xbe163cf3	-0.14671688
121	0xbb49756f	-0.0030740162
122	0x3e190f40	0.14947224
123	0xbe4a8d1f	-0.19780396
124	0xbcca9f0d	-0.024734044
125	0xbe48775b	-0.1957678
126	0xbe8d745a	-0.27627832
127	0xbdf9d2e6	-0.12198429
128	0x3dba3983	0.09093001
129	0x3de7a9d0	0.11311686
130	0xbe13074e	-0.14358255
131	0x3dd4906c	0.10379109
132	0x3e8deed0	0.27721262
133	0x3e60daff	0.2195854
134	0x3d958e6f	0.07302558
135	0x3e361dab	0.17784755
136	0x3e2a6d74	0.16643316
137	0x3daebafa	0.08531757
138	0xbe0a228c	-0.13489741
139	0xbe6c6e43	-0.23088937
140	0xbda6771b	-0.08128186
141	0xbd294812	-0.041328497
142	0xbe00654f	-0.12538646
143	0x3db6a950	0.089190125
144	0x3d82f8f3	0.063951395
145	0xbdddffab	-0.108397804
146	0x3ce3bbaf	0.027799455
147	0x3d4716c3	0.04860569
148	0x3de7a53b	0.11310812
149	0x3e03729a	0.12836686

convnet.c1.bias f4 [6]
0	0xbd37d4de	-0.04488074
1	0x3d0fe401	0.03512955
2	0xbd198d26	-0.037488125
3	0xbd674f92	-0.05647237
4	0xbea09832	-0.31366116
5	0xbebc78ad	-0.36810818

convnet.c3.weight f4 [16, 6, 5, 5]
0	0x3cbd2113	0.02308706
1	0xbd339c2a	-0.0438501
2	0x3c80c635	0.015719512
3	0xbc5b94ec	-0.013402205
4	0x3cf1da2f	0.029522983
5	0xbbc8e192	-0.0061304057
6	0xbdb76abe	-0.08955906
7	0xbdafdcef	-0.085870616
8	0xbe11d72f	-0.14242242
9	0x3d330f88	0.043715984
10	0xbe33e8b3	-0.17569236
11	0xbe116231	-0.14197613
12	0xbe122768	-0.14272845
13	0xba75f6de	-0.00093827944
14	0x3d94d9f3	0.07268133
15	0xbde78812	-0.1130525
16	0xbd096842	-0.033546694
17	0x3d804f87	0.06265169
18	0x3e1c499b	0.15262453
19	0x3da34bc0	0.079734325
20	0xbdb805a1	-0.08985449
21	0x3c84db7b	0.016217938
22	0xbce4506a	-0.027870376
23	0x3d94511b	0.07242032
24	0xbd9464a2	-0.07245757
25	0xbe9057c6	-0.28191966
26	0xbea562b5	-0.3230187
27	0xbd9826be	-0.074292645
28	0xbcf81a38	-0.03028594
29	0x3e13b6f1	0.14425255
30	0xbeb4754b	-0.35245737
31	0xbeafa5d2	-0.34306198
32	0xbc8bd0de	-0.01706737
33	0x3d0d85ee	0.034551553
34	0x3d938b44	0.07204297
35	0xbe6bd900	-0.23031998
36	0xbdef35a3	-0.11680152
37	0x3d89d1e1	0.06729484
38	0x3e0b5783	0.13607602
39	0xbe230f6b	-0.1592385
40	0xbd8ab2ca	-0.067723826
41	0x3dc75cd0	0.097344995
42	0x3e32de4b	0.1746761
43	0xbd0c5a08	-0.034265548
44	0xbdd5b3e6	-0.104347035
45	0xbdce7461	-0.10080791
46	0x3e0371e3	0.12836413
47	0x3ccb7fa9	0.024841147
48	0x3d98439e	0.07434772
49	0x3bbc645b	0.005749268
50	0x3c92bb1a	0.017911483
51	0x3cf4cb8b	0.029882213
52	0xbca6c35b	-0.020356825
53	0x3dab0dcc	0.08352241
54	0xbc3186ea	-0.010835389
55	0x3d1c28d3	0.03812487
56	0xbe28f77e	-0.16500661
57	0x3d613f94	0.054992273
58	0x3dd77a8d	0.105214216
59	0xbe34205b	-0.17590468
60	0xbcef4a98	-0.029210374
61	0xbbcbd8d0	-0.0062209144
62	0x3be7e7b8	0.0070771836
63	0xbd2b33d9	-0.041797493
64	0xbe0c832a	-0.1372191
65	0x3d4e07d2	0.050300427
66	0xbd22efc2	-0.039779432
67	0xbdfc8653	-0.12330308
68	0xbdde25e9	-0.108470745
69	0xbdbb7cbf	-0.09154653
70	0xbd7564a6	-0.05991044
71	0x3cab2ed2	0.02089635
72	0xbd8ac09a	-0.06775017
73	0xbca93005	-0.02065278
74	0xbe0cdd14	-0.1375621
75	0xbd080dd8	-0.033216327
76	0x3d5bf128	0.05369678
77	0xbd964847	-0.073380046
78	0xbd9be4a1	-0.07611967
79	0xbea3d9b4	-0.32002032
80	0xbd931560	-0.07181811
81	0x3e2cef79	0.16888227
82	0x3db8952b	0.090128265
83	0xbebab172	-0.36463505
84	0xbe37f046	-0.17962751
85	0x3d2c7460	0.04210317
86	0x3e292d3b	0.1652116
87	0xbddf8d76	-0.109156534
88	0xbedce77d	-0.43145362
89	0xbd2d06ad	-0.042242695
90	0x3ce04d6d	0.02738067
91	0x3dc6c4ba	0.09705491
92	0xbdf3f43c	-0.119118184
93	0xbe0b79f4	-0.1362074
94	0x3d5bc8fd	0.053658474
95	0x3d8e40e0	0.06945968
96	0x3e1da486	0.15394792
97	0x3d54e963	0.051980387
98	0xbd91e134	-0.07123032
99	0xbe15c3d7	-0.14625488
100	0xbd549fcd	-0.05191021
101	0x3d99419c	0.07483217
102	0x3d1b60d0	0.037934124
103	0x3d91e222	0.071232095
104	0x3e10003a	0.14062586
105	0xbd3dd323	-0.046343934
106	0xbd4ff430	-0.050769985
107	0x3e0b55bd	0.13606925
108	0x3dac22c5	0.08405069
109	0xbde90647	-0.113781504
110	0xbdfb02cb	-0.12256392
111	0xbd452230	-0.048128307
112	0x3e103332	0.1408203
113	0xbd311256	-0.043230377
114	0xbe0132c7	-0.12617026
115	0xbdae1559	-0.085001655
116	0x3d52ca3f	0.05146241
117	0x3dc7efba	0.09762521
118	0xbd2c0be3	-0.042003524
119	0xbe010c59	-0.12602367
120	0xbdfe1f94	-0.12408367
121	0x3c1c583a	0.009542519
122	0xbd5d5354	-0.054034546
123	0xbd51a7b0	-0.05118531
124	0xbe3ba86f	-0.18325971
125	0x3dce4198	0.10071105
126	0x3e7b506a	0.24542394
127	0x3ddd6ddf	0.10811972
128	0xbc378fb6	-0.011203697
129	0xbdeda7b0	-0.116042495
130	0x3cc58981	0.024113419
131	0x3ddb36ca	0.107038096
132	0xbd35d7cb	-0.04439525
133	0xbcda5565	-0.026652047
134	0xbe5d173d	-0.21590896
135	0xbdc969ac	-0.098346084
136	0x3d9b41c6	0.07580905
137	0x3dc346e0	0.09535003
138	0xbdca940a	-0.098915175
139	0xbe774d9c	-0.241507
140	0xbd52ea2f	-0.051492866
141	0x3cbd9d4f	0.0231463
142	0xbd72abeb	-0.059245985
143	0xbe5df8da	-0.2167696
144	0xbe1a9a7e	-0.15097997
145	0xbdcbc61c	-0.09949896
146	0xbd2324e1	-0.039830092
147	0xbe19ec71	-0.15031601
148	0xbe1539bc	-0.14572805
149	0xbe3a95f0	-0.18221259
150	0xbdcf422f	-0.101200454
151	0x3e01ec48	0.1268779
152	0xbd1f6a6a	-0.038919844
153	0x3c66e3e1	0.0140924165
154	0x3d5234ab	0.05131976
155	0x3c2bdb16	0.010489246
156	0x3d5f3d35	0.05450173
157	0x3e0c04a8	0.13673651
158	0x3e5f92b5	0.21833308
159	0xbe93e195	-0.28883043
160	0x3d52d749	0.051474843
161	0x3e020526	0.12697276
162	0x3e4a19d2	0.19736412
163	0x3e2b3343	0.16718774
164	0xbdace0e1	-0.0844133
165	0x3da279a9	0.07933361
166	0xbdccbf1b	-0.09997388
167	0xbe396062	-0.18103173
168	0xbd6a1cd2	-0.05715639
169	0xbc81f6f3	-0.015864825
170	0x3cca9731	0.024730297
171	0xbc67616d	-0.014122349
172	0xbe7e9157	-0.2486013
173	0xbe74eb35	-0.2391785
174	0xbd82c2ce	-0.06384812
175	0xbdd869a2	-0.10567023
176	0x3d6897e0	0.056785464
177	0xbdb907ed	-0.09034715
178	0xbe12b11d	-0.14325376
179	0xbe47e04a	-0.19519153
180	0xbe261c32	-0.16221693
181	0xbc4271f6	-0.011867991
182	0x3e2a66d0	0.16640782
183	0x3e1ba2b5	0.15198787
184	0xbd96a1b0	-0.07355058
185	0xbe353d9f	-0.17699288
186	0xbc9ef9d2	-0.019406233
187	0x3e32a643	0.17446236
188	0x3e2384c2	0.15968612
189	0x3dfd0142	0.123537555
190	0xbe2af6e8	-0.1669575
191	0xbe9bd638	-0.30436873
192	0xbe051347	-0.12995635
193	0x3d33375d	0.04375397
194	0x3e3fad0c	0.18718356
195	0xbe1d73d7	-0.1537622
196	0xbea526d4	-0.32256186
197	0xbe24edcb	-0.16106336
198	0x3db4665c	0.08808586
199	0x3e0caed1	0.13738562
200	0x3d9d0016	0.07666032
201	0xbc41ce07	-0.011828906
202	0x3d2e5667	0.04256287
203	0x3daf8752	0.08570732
204	0xbd74c6e9	-0.059760008
205	0xbd6ba0c2	-0.057526357
206	0x3c97f61b	0.01854997
207	0xbdc339e9	-0.0953253
208	0xbd00fb2f	-0.031489547
209	0xbd2aac22	-0.041668065
210	0xbccc21a2	-0.024918381
211	0xbd844a52	-0.06459488
212	0xbe64785d	-0.2231154
213	0xbe846611	-0.2585912
214	0xbe01fe4e	-0.12694666
215	0x3b1df251	0.002410073
216	0xbd399db3	-0.04531641
217	0xbda50b3c	-0.080587834
218	0x3d73dd45	0.05953719
219	0x3beede49	0.007289682
220	0xbd9c2d81	-0.07625867
221	0x3e286b40	0.16447163
222	0x3e5f53fe	0.21809384
223	0x3e0d1efd	0.13781352
224	0xbde246c8	-0.11048657
225	0xbe375e00	-0.17906952
226	0xbd2d818c	-0.042359874
227	0xbdf0d875	-0.11760036
228	0xbdef3a9f	-0.11681103
229	0x3df7b7de	0.12095617
230	0xbc38f807	-0.011289603
231	0x3d80bc77	0.06285947
232	0xbc835ab9	-0.01603447
233	0xbe4df713	-0.20113783
234	0x3caa7a0c	0.02081015
235	0x3c86c7e0	0.01645273
236	0x3d56d72a	0.05245129
237	0x3d4a4fff	0.049392696
238	0x3dbd191e	0.09233306
239	0xbdc375df	-0.095439665
240	0xbb63e85e	-0.0034775953
241	0xbd4ab1fa	-0.049486138
242	0x3dc66f14	0.09689155
243	0x3dd267f1	0.102737315
244	0xbd86988d	-0.065720655
245	0x3cecf015	0.028923074
246	0xbdadab01	-0.08479882
247	0xbe4e4e38	-0.20147026
248	0xbe5bc3de	-0.21461436
249	0xbde34103	-0.110963844
250	0xbe66d7db	-0.2254328
251	0xbe25f692	-0.1620734
252	0xbdb7fe52	-0.089840546
253	0xbdad1acf	-0.08452379
254	0xbdebaa74	-0.11507121
255	0xbd410ef5	-0.047133405

convnet.c3.bias f4 [16]
0	0xbe00058d	-0.12502117
1	0xbe47067d	-0.19436069
2	0xbe0be568	-0.1366173
3	0xbcbd8c49	-0.023138182
4	0xbbe2e33d	-0.0069240616
5	0x3bf6f3f4	0.0075364057
6	0x3cdfc8f6	0.027317505
7	0xbdc5a668	-0.0965088
8	0xbc8cbb11	-0.017179044
9	0x3aedee3d	0.0018152666
10	0xbdef327c	-0.11679551
11	0x3d1dd7fc	0.038536057
12	0xbe8e913b	-0.27845177
13	0xbe74e12d	-0.23914023
14	0xbb400987	-0.0029302554
15	0x3d42a37b	0.04751919

convnet.c5.weight f4 [120, 16, 5, 5]
0	0x3dd4a4fa	0.10383029
1	0x3dd0c350	0.10193503
2	0x3dba292b	0.090898834
3	0x3ba293f0	0.004961483
4	0x3c7c5c11	0.01540281
5	0x3df3007c	0.11865327
6	0xbde0c9e4	-0.109760076
7	0x3cb47646	0.022029053
8	0xbcf9eebb	-0.030509343
9	0xbe1d2b8e	-0.15348646
10	0x3d9ae6d0	0.07563555
11	0xbdc98024	-0.09838894
12	0x3d8a54dc	0.06754467
13	0xbe34d81a	-0.17660561
14	0xbe2fce36	-0.17168507
15	0x3cee6b27	0.029103829
16	0x3dab500f	0.08364879
17	0xbd080bdd	-0.03321444
18	0xbe4ff2a6	-0.20307407
19	0xbcd667fa	-0.026172627
20	0x3d2f7c0a	0.042842902
21	0xbceb4a13	-0.028721845
22	0xbe684f18	-0.22686422
23	0xbdebd061	-0.115143545
24	0x3d2681d3	0.040651154
25	0xbd8ddd84	-0.069270164
26	0xbe0d531c	-0.13801235
27	0xbdb1f11f	-0.08688568
28	0xbd738b45	-0.05945899
29	0xbc87525d	-0.016518766
30	0x3ca03e2f	0.019560901
31	0x3dadfa77	0.08495038
32	0xbdc02dcb	-0.09383734
33	0xbd61c573	-0.055119943
34	0x3df29507	0.11844831
35	0x3b266e4e	0.0025395337
36	0xbb6111d2	-0.0034342897
37	0xbd4c66b3	-0.04990263
38	0xbd15aa96	-0.036539637
39	0x3e0efbdd	0.13963266
40	0x3d5593f5	0.052143056
41	0x3cbb3466	0.022852134
42	0xbd90cd5e	-0.07070421
43	0xbb3bf135	-0.0028677706
44	0x3de633e6	0.112403676
45	0x3d17f63b	0.037100058
46	0xbaead990	-0.0017917622
47	0xbd773a29	-0.0603582
48	0xbc3d1175	-0.011539807
49	0xbe2d013d	-0.16895004
50	0x3ccbbb42	0.024869565
51	0xbdf407e8	-0.119155705
52	0xbdfbf6ca	-0.12302931
53	0xbd16ae4a	-0.03678731
54	0x3ddf6e13	0.10909667
55	0x3dcba57c	0.09943673
56	0x3d250176	0.040284596
57	0xbd49ef72	-0.04930062
58	0xbe2d5e31	-0.16930462
59	0xbcbfc2a7	-0.023408247
60	0x3dd489b1	0.10377825
61	0x3d1f007f	0.038818832
62	0x3ce97f4d	0.028503085
63	0xbdd6445f	-0.104622595
64	0xbd533e81	-0.05157328
65	0x3d6fd90c	0.0585566
66	0x3d188bd4	0.037242725
67	0x3d4fb86d	0.05071299
68	0x3e1791f9	0.14801778
69	0x3d3eeb85	0.046611328
70	0x3d413931	0.047173683
71	0x3e07dbff	0.13267516
72	0xbd3a64a8	-0.04550615
73	0xbda265eb	-0.079295956
74	0xbdfa9485	-0.12235359
75	0x3c8a47ec	0.016879998
76	0xbd3fbdf0	-0.046811998
77	0xbd8c22f0	-0.06842601
78	0x3c3eb87b	0.011640663
79	0x3bd4f299	0.0064986465
80	0x3dbb11a2	0.091342226
81	0x3b5362b6	0.0032254881
82	0x3d1a698e	0.03769832
83	0x3dd34039	0.10314984
84	0x3c0c045f	0.008545964
85	0xbd0cb305	-0.034350414
86	0x3c96f1c7	0.018425835
87	0x3d90239b	0.07038041
88	0x3e3d3a88	0.18479359
89	0x3d4fafd7	0.050704803
90	0x3db4bac4	0.08824685
91	0x3d542a99	0.051798437
92	0x3ba93438	0.0051636957
93	0x3da93d9c	0.08263704
94	0xbd09fb44	-0.03368689
95	0xbbae2565	-0.0053145164
96	0x3d3aa121	0.04556382
97	0xbcba331f	-0.022729455
98	0xbbf40f64	-0.007448124
99	0xbe25ef39	-0.16204537
100	0x3de3bf95	0.11120526
101	0xbcc28e2d	-0.023749435
102	0x3ccfbb91	0.025357993
103	0x3c1484e5	0.009064888
104	0xbd229f62	-0.03970278
105	0x3d047199	0.032334898
106	0xbe0500e8	-0.12988627
107	0xbc1d19a5	-0.009588634
108	0x3d577e39	0.05261061
109	0x3e00123f	0.1250696
110	0xbc26ed6c	-0.010188442
111	0xbd445343	-0.047930967
112	0x3d4ae70b	0.049536746
113	0xbcf72c5e	-0.030172523
114	0x3db1cb4b	0.08681353
115	0xbdef4053	-0.11682191
116	0x3cf43c6b	0.029813966
117	0xbdc0692f	-0.09395062
118	0xbd8e257e	-0.06940745
119	0xbd345390	-0.044025004
120	0xbe1771c2	-0.14789489
121	0xbe3a05f3	-0.18166332
122	0xbd98b105	-0.07455639
123	0x3cf65963	0.03007192
124	0x3e1003a4	0.14063889
125	0x3da2b9eb	0.07945617
126	0xbd62f7bd	-0.055412043
127	0xbd5c12ba	-0.053728797
128	0xbda1d087	-0.079011016
129	0xbdc2cb00	-0.095113754
130	0xbd842310	-0.06452
131	0xbe0c2279	-0.13685025
132	0xbcec03a0	-0.028810322
133	0x3d619570	0.055074155
134	0xbd52fed9	-0.051512573
135	0xbe107155	-0.14105733
136	0xbdb6dbc8	-0.08928639
137	0xbcdb5301	-0.026772978
138	0x3d496372	0.049167104
139	0xbcb0f551	-0.021601351
140	0xbcccb00a	-0.024986286
141	0xbe5fc9e8	-0.21854365
142	0xbdae92df	-0.08524107
143	0x3e10c7fa	0.14138785
144	0x3cdfe136	0.027329069
145	0xbc478229	-0.012177029
146	0xbac86e78	-0.0015291711
147	0x3d02f4f4	0.031971887
148	0x3b75b019	0.0037488996
149	0x3cf3f5ea	0.029780347
150	0xbd9f1923	-0.07768466
151	0xbdae7d2b	-0.08519968
152	0xbe28afea	-0.16473356
153	0x3d2ad715	0.041709024
154	0x3e155105	0.14581688
155	0xbd2f8b20	-0.04285729
156	0xbdca6142	-0.09881832
157	0xbe2ffe31	-0.1718681
158	0xbe145070	-0.1448381
159	0xbda2c029	-0.07946808
160	0x3d4fc6c4	0.050726667
161	0xbc028a39	-0.007967525
162	0xbdecb86b	-0.115586124
163	0xbe52ef01	-0.20598985
164	0xbd2e740f	-0.04259115
165	0x3d46cedc	0.04853712
166	0xbdd66e93	-0.10470309
167	0xbd2c2aa8	-0.042032868
168	0xbd1951b9	-0.037431452
169	0xbcb48af6	-0.022038918
170	0x3e0c5ced	0.13707323
171	0x3e1bb52c	0.1520583
172	0xbd8b6dba	-0.06808038
173	0xbdd82c70	-0.10555351
174	0xbd9f085f	-0.077652685
175	0x3decab5c	0.11556122
176	0x3cec90a4	0.028877564
177	0x3e75f7d0	0.24020314
178	0x3d8646aa	0.06556447
179	0x3d4f93a2	0.050677903
180	0x3be02005	0.0068397545
181	0xbbf0a79d	-0.0073442
182	0x3d385b6d	0.045009065
183	0x3db43e42	0.08800937
184	0xbdbf66a7	-0.09345751
185	0x3ca554ba	0.020182002
186	0x3bb874f4	0.0056291763
187	0xbda36beb	-0.07979568
188	0xbdd02564	-0.10163382
189	0xbea989d5	-0.3311297
190	0x3dc25add	0.09489987
191	0xbd8f8a00	-0.07008743
192	0x3d3776d9	0.044791076
193	0xbd5dd519	-0.054158304
194	0x3cca5503	0.02469874
195	0xbe0760de	-0.13220546
196	0xbe0e3d2d	-0.13890524
197	0x3e5cbfe2	0.21557572
198	0x3e528d93	0.20561819
199	0x3c87dd84	0.016585119
200	0xbd3c5bb2	-0.045985885
201	0x3d9ab006	0.07553105
202	0xbd937fa5	-0.07202081
203	0x3ce06100	0.027390003
204	0xbd6a2251	-0.057161633
205	0x3d72cdab	0.05927817
206	0x3cb422bf	0.021989224
207	0xbcf683a7	-0.030092074
208	0x3c432055	0.011909564
209	0x3dcddc13	0.100517415
210	0xbda7bf2c	-0.0819076
211	0xbd819886	-0.0632792
212	0xbc61c4c1	-0.01377982
213	0x3d74b37f	0.059741493
214	0x3cd6045a	0.026125122
215	0x3d472f87	0.04862931
216	0xbad81f62	-0.0016488845
217	0xbcc5e60e	-0.02415755
218	0x3d89a79e	0.067214236
219	0xbda0600c	-0.078308195
220	0x3b351aa6	0.0027634292
221	0x3dd3b543	0.10337307
222	0x3ca415fb	0.020030012
223	0x3c1eb65f	0.009687035
224	0xbd1305a9	-0.03589407
225	0xbc8648be	-0.016392108
226	0xbd5eb2e9	-0.05436984
227	0x3bbba5ba	0.0057265433
228	0x3e331bd8	0.1749109
229	0x3e5761c4	0.21033388
230	0xbde88522	-0.11353518
231	0xbdd25dda	-0.10271807
232	0x3d93797c	0.07200906
233	0x3d57a487	0.05264714
234	0x3de10178	0.10986608
235	0x3ca54ed1	0.020179184
236	0xbcf7bcc9	-0.030241387
237	0xbe061733	-0.13094787
238	0xbe3a8b5c	-0.18217224
239	0xbdfb7c1c	-0.12279531
240	0xbe2b8f51	-0.1675389
241	0xbe388743	-0.18020348
242	0xbdb10870	-0.086441875
243	0xbdd6d4ad	-0.104897834
244	0xbe7fe82f	-0.24990915
245	0x3d7b73d1	0.061389748
246	0x3cc643a4	0.024202175
247	0x3e37321c	0.17890209
248	0x3e5d5873	0.21615772
249	0xbe1b8d58	-0.15190637
250	0x3cf20d24	0.029547282
251	0x3d24c42b	0.040226143
252	0x3d675d2d	0.056485344
253	0xbd8f634b	-0.070013605
254	0xbc10d676	-0.008840194
255	0xbc9291a6	-0.017891716

convnet.c5.bias f4 [120]
0	0x3daab71e	0.08335708
1	0x3d778663	0.060430896
2	0x3c90be7b	0.017668953
3	0x3d73780c	0.059440657
4	0x3c8caa42	0.017171029
5	0xbd52e3a7	-0.051486637
6	0x3b0ddb47	0.0021645592
7	0xbcacfc78	-0.02111648
8	0xbd275fb5	-0.040862758
9	0xbb96b63a	-0.00459936
10	0xbca48c37	-0.02008639
11	0xbd217406	-0.03941729
12	0xbcd7b4f7	-0.026331408
13	0xbd8e82a1	-0.06958509
14	0xbd845885	-0.06462196
15	0xbd81973f	-0.06327676
16	0x3b528960	0.003212534
17	0x3cc7843b	0.024355045
18	0xbd3acadd	-0.04560362
19	0xbd5b6e65	-0.053572077
20	0xbc2db772	-0.010602819
21	0x3d2fd79f	0.04293024
22	0xbd085cd1	-0.03329164
23	0x3d8a5f90	0.06756508
24	0x3bda87df	0.006669029
25	0xbd3ae5fb	-0.045629483
26	0x3c967faa	0.018371422
27	0x3c5bcd1d	0.013415602
28	0x3d10b508	0.035328895
29	0x3b4af556	0.0030968986
30	0xbca25f7f	-0.019820927
31	0x3d314692	0.04328019
32	0xbd80ad54	-0.0628306
33	0x3d1a31ed	0.03764527
34	0xbd923dd9	-0.07140703
35	0xbd11e3c9	-0.035617623
36	0xbadb40f8	-0.0016727736
37	0xbc0d32ee	-0.0086181
38	0xbbd7c708	-0.0065850057
39	0xbc4a7237	-0.0123563325
40	0xbe0855b6	-0.13313946
41	0xbbd0c0d1	-0.0063706418
42	0xbd902291	-0.07037843
43	0xbd24d3a2	-0.04024089
44	0xbd0bb464	-0.03410758
45	0xbca3cd4c	-0.019995354
46	0xbd10b820	-0.035331845
47	0x3c621e1d	0.013801125
48	0x3cf9e736	0.030505758
49	0xbd2f511d	-0.042801965
50	0xbb085cb1	-0.0020807202
51	0xbc2981ea	-0.010345915
52	0x3d25d4dc	0.0404862
53	0xbd538308	-0.051638633
54	0x3cc4051f	0.023928223
55	0xbd891012	-0.06692518
56	0x3cb409b9	0.021977292
57	0xbd2265ed	-0.039647985
58	0xbd37d45a	-0.04488025
59	0x3c201beb	0.009772281
60	0x3d8c563d	0.06852386
61	0xbadbf45a	-0.0016781196
62	0x3ca53e32	0.020171259
63	0xbd03b80e	-0.03215795
64	0x3ccf2a1d	0.025288636
65	0xbc92aedb	-0.017905643
66	0xbd82edb2	-0.06392993
67	0x3d4cb602	0.049978264
68	0xba3004ca	-0.0006714581
69	0xbd65f04a	-0.05613736
70	0xbc17f56e	-0.009274824
71	0xbd817c31	-0.06322516
72	0x3d228938	0.039681643
73	0x3db23f6d	0.08703504
74	0x3d8e623c	0.069523305
75	0xbc685bca	-0.0141820405
76	0x3cb94cbf	0.022619603
77	0xbd2b6b2a	-0.041850246
78	0xbc699ef8	-0.0142590925
79	0xbd69cb05	-0.05707838
80	0x3d0a37c3	0.033744585
81	0xbcb20b99	-0.021734046
82	0xbca4eff7	-0.020133955
83	0x3cc9b241	0.02462113
84	0x3d8cb197	0.0686981
85	0xbcfc9fc8	-0.030837908
86	0x3bb425e9	0.0054976833
87	0x3d18d82a	0.037315525
88	0x3d06cab3	0.032908153
89	0x3cf5d3fe	0.030008312
90	0xbcbde5ad	-0.023180807
91	0xbda7b246	-0.081883
92	0x3d6bf819	0.05760965
93	0xbc835d8f	-0.016035823
94	0x3c846f22	0.016166274
95	0xbd296b09	-0.041361842
96	0x3cdf28f4	0.027241208
97	0x3d014107	0.031556156
98	0xbab08a4d	-0.0013468951
99	0xbdcb531a	-0.0992796
100	0xbca82160	-0.020523727
101	0x3d576166	0.05258312
102	0x3be0f1ce	0.006864763
103	0xbd61963a	-0.055074908
104	0xbc454eaf	-0.012042685
105	0xbc354259	-0.011063182
106	0x3d3dea6d	0.046366144
107	0x3dbb720d	0.09152613
108	0xbd668920	-0.056283116
109	0xbcccb91c	-0.02499061
110	0x3c562815	0.01307108
111	0x3cd12168	0.025528625
112	0xbcc81e3a	-0.024428476
113	0x3d31373e	0.043265574
114	0x3c9e5e20	0.019331992
115	0xbcd49a90	-0.025952607
116	0xbcb25914	-0.021770991
117	0xba778ad7	-0.0009442991
118	0x3d4f5769	0.05062047
119	0x3d4de22b	0.05026452

fc.f6.weight f4 [84, 120]
0	0xbc8e983e	-0.01740658
1	0xbd717ee2	-0.058958896
2	0xbd677873	-0.056511354
3	0xbdc3e11c	-0.095644206
4	0xbd9d2de1	-0.07674766
5	0xbd88761f	-0.06663155
6	0xbe182b65	-0.14860304
7	0xbe0b75ca	-0.13619152
8	0xbd95e49a	-0.07318993
9	0x3d8f2ab8	0.0699057
10	0x3b615692	0.0034383875
11	0xbd56a387	-0.052402046
12	0x3d204498	0.039127916
13	0xbde9cd3a	-0.11416097
14	0x3c0743e0	0.008255929
15	0xbd9fffd3	-0.078124665
16	0x3da6d04f	0.081452005
17	0x3bc894a2	0.006121234
18	0xbde622e6	-0.11237125
19	0xbc3b6347	-0.011437244
20	0xbe0a0bd4	-0.13481075
21	0x3dec13f7	0.115272455
22	0x3caac895	0.020847598
23	0xbcc6dc05	-0.024274835
24	0xbd3b0bcc	-0.045665547
25	0xbe0ec5cb	-0.1394264
26	0xbd0fd04d	-0.03511076
27	0x3d353506	0.04424002
28	0xbdd29f99	-0.10284347
29	0xbd33e21e	-0.043916814
30	0xbd3a8bfd	-0.04554366
31	0x3b7a8c2e	0.0038230526
32	0xbd2b1dfb	-0.04177664
33	0xbd0fe6a6	-0.035132073
34	0xbd648e6c	-0.055799887
35	0xbd59cf93	-0.053176474
36	0xbd00c3a4	-0.031436577
37	0xbd76feda	-0.06030164
38	0xbd466500	-0.048436165
39	0xbd42ab71	-0.04752678
40	0xbddef189	-0.10885913
41	0xbd58056c	-0.052739546
42	0xbd849be7	-0.064750485
43	0x3b1a8480	0.0023577511
44	0xbd20f70f	-0.039298113
45	0xbd336adf	-0.043803092
46	0x3d8dc867	0.06922989
47	0xbd81e5cb	-0.06342658
48	0x3abd8129	0.0014458048
49	0xbdd07ce6	-0.101800725
50	0x3c446aab	0.011988322
51	0xbd8867ee	-0.06660448
52	0xbe20e0e4	-0.15710789
53	0xbb91eaab	-0.0044530234
54	0xbe16d4db	-0.14729635
55	0x3ccd6849	0.025074141
56	0xbda94d1c	-0.082666606
57	0xbdde016e	-0.108401164
58	0xbc03dba1	-0.008047969
59	0xbde81ac5	-0.11333231
60	0xbd77e4e4	-0.06052102
61	0x3d43b7ec	0.047782823
62	0xbdbe0f76	-0.09280293
63	0x3d555620	0.05208409
64	0xbd9e8a1b	-0.07741185
65	0x3d1d7f90	0.03845173
66	0x3cba535b	0.022744825
67	0x3d514daf	0.051099475
68	0xbd3da2af	-0.046297725
69	0xbbca2a50	-0.006169595
70	0x3da55d86	0.08074479
71	0xbd6d8031	-0.05798358
72	0xbd9fb2c1	-0.077977665
73	0x3dcf4c8e	0.101220235
74	0xbd91dfe5	-0.071227826
75	0xbda7fa00	-0.082019806
76	0xbd96feb7	-0.07372802
77	0xbd3f95f1	-0.046773855
78	0xbdeca936	-0.11555712
79	0xbd67f520	-0.056630254
80	0x3d22f241	0.039781813
81	0x3d327434	0.04356785
82	0x3db9ba6e	0.09068762
83	0xbc593305	-0.013256793
84	0xbd0fc3d6	-0.035098873
85	0x3c02c360	0.007981151
86	0xbc9a029a	-0.018800069
87	0xbd9285d9	-0.07154436
88	0xbd16fd12	-0.03686244
89	0xbc795235	-0.015217354
90	0xbd88aa44	-0.066731006
91	0xbb1ea160	-0.0024205074
92	0xbb75faef	-0.0037533601
93	0xbe3692a7	-0.17829381
94	0xbdfb85ed	-0.12281404
95	0xbdbd1c32	-0.092338935
96	0xbc96df16	-0.018416923
97	0x3cde25d0	0.02711764
98	0x3dbeac1b	0.0931017
99	0xbdb2fad5	-0.08739249
100	0xbcd7405c	-0.026275806
101	0x3d2b088d	0.0417562
102	0xbdad7a1e	-0.08470558
103	0xbe0e8dc3	-0.13921265
104	0x3cdde624	0.027087279
105	0x3de071c8	0.10959202
106	0x3d2da59d	0.04239427
107	0x3c8ad2e3	0.016946262
108	0xbd8db9aa	-0.06920178
109	0xbdc59901	-0.09648324
110	0xbdcf789c	-0.10130426
111	0x3c0a70c6	0.008449739
112	0xbd889237	-0.06668513
113	0xbd9f0f21	-0.077665575
114	0xbbeafd44	-0.007171305
115	0xbd010690	-0.0315004
116	0x3ca43224	0.02004344
117	0x3dc59f0b	0.09649476
118	0x3bd3d491	0.006464549
119	0xbdf0872a	-0.117445305
120	0x3d7f30b4	0.062302306
121	0x3cedc2de	0.029023584
122	0x3d1a1638	0.037618846
123	0xbda48058	-0.08032292
124	0x3b37e2e1	0.0028058814
125	0x3c88436f	0.016633717
126	0xbd845909	-0.064622946
127	0xbe1ae12c	-0.15124959
128	0xbd151e78	-0.03640601
129	0xbe214fc2	-0.15753081
130	0xbd4099a8	-0.047021538
131	0x3d90a436	0.07062571
132	0xbe005de5	-0.12535818
133	0xbd8b0d97	-0.067897014
134	0x3cd27229	0.025689201
135	0xbd94d0e1	-0.07266403
136	0xbc554587	-0.013017065
137	0xbd16b722	-0.036795743
138	0xbc21d149	-0.009876558
139	0xbc67d219	-0.014149212
140	0x3c22603e	0.009910641
141	0xbdb16258	-0.08661336
142	0xbdff34c0	-0.12461233
143	0xbd778d03	-0.060437214
144	0x3d09d89c	0.03365384
145	0x3dcfd0a8	0.1014722
146	0x3c87e633	0.01658926
147	0xbc841a8d	-0.016125942
148	0x3ddec3a9	0.10877163
149	0x3e05fce2	0.13084748
150	0xbe1289fd	-0.14310451
151	0xbdd74f31	-0.105131514
152	0xbe0e13e4	-0.13874775
153	0xbc262fc1	-0.010143221
154	0x3cf6afed	0.030113185
155	0x3d997277	0.074925356
156	0xbd878b69	-0.06618387
157	0xbe456174	-0.19275457
158	0xbdbd3b37	-0.0923981
159	0x3e41c506	0.18922815
160	0x3d8d9d2d	0.069147445
161	0x3da91bab	0.0825723
162	0xbda360a9	-0.07977421
163	0xbcff94c5	-0.031198869
164	0x3c68916a	0.014194826
165	0x3cd21690	0.025645524
166	0x3daad579	0.08341498
167	0x3980421f	0.00024463327
168	0x3d8170ab	0.06320318
169	0xbd911855	-0.07084719
170	0x3deaeb05	0.11470608
171	0xbd43143a	-0.04762671
172	0xbd6545a8	-0.055974633
173	0xbe22e476	-0.15907463
174	0xbc8b6d56	-0.017019909
175	0xbcff586a	-0.031170089
176	0x3d79b72e	0.06096571
177	0x3e05e018	0.13073766
178	0xbdb31e26	-0.08745985
179	0x3de5230a	0.11188324
180	0xbcd71815	-0.0262566
181	0xbd16a19a	-0.03677521
182	0xbe782ad9	-0.24235095
183	0xbde7576e	-0.11295973
184	0x3d2b668e	0.04184585
185	0x3d019deb	0.031644743
186	0xbd864d8d	-0.065577604
187	0xbd9a5d60	-0.07537341
188	0x3c84f170	0.016228408
189	0xbdab0a3f	-0.08351564
190	0x3e1a1cfe	0.15050122
191	0x3ccc2889	0.024921672
192	0x3da71ef8	0.08160204
193	0xbdd2373f	-0.102644436
194	0xbc1cedcc	-0.00957818
195	0xbd971a0c	-0.07378015
196	0x3cd83f79	0.026397454
197	0x3dd4c94a	0.10389955
198	0x3b1825b8	0.0023215842
199	0xbd2bc6c6	-0.041937612
200	0x3dbb9065	0.091584004
201	0x3dd8bbcd	0.10582695
202	0xbd71d322	-0.059039243
203	0xbd9189a6	-0.071063325
204	0xbc31b7dd	-0.010847059
205	0x3d727100	0.059189796
206	0x3ce48ae8	0.027898267
207	0xbb1e1a8c	-0.002412471
208	0x3db4dde3	0.08831384
209	0xbe9c3952	-0.30512482
210	0x3d131f56	0.035918556
211	0xbd7360dc	-0.059418544
212	0xbe5cefc9	-0.21575846
213	0xbc7a418f	-0.015274419
214	0x3ddecfdd	0.108794905
215	0xbb0c7ce4	-0.0021436745
216	0xbd4b86a2	-0.049688943
217	0x3d63875f	0.05554902
218	0xbcb5d6aa	-0.022197086
219	0xbdad2ef5	-0.08456222
220	0x3da7c38e	0.08191596
221	0x3d89826f	0.06714331
222	0xbdbd1634	-0.092327505
223	0x3d4c758e	0.049916796
224	0x3b0f40d9	0.002185872
225	0xbe1d4ef4	-0.1536215
226	0xbe3de4eb	-0.18544357
227	0x3e56b403	0.20967107
228	0xbde71c4b	-0.11284693
229	0x3d767acd	0.060175706
230	0x3dadcf60	0.08486819
231	0xbd89b95e	-0.06724809
232	0xbd1d7057	-0.038437214
233	0xbcd7665d	-0.026293928
234	0xbd8a0b86	-0.06740479
235	0x3dd9bbb7	0.10631507
236	0x3d479a50	0.04873115
237	0x3cd967cd	0.026538754
238	0xbd1819c0	-0.037133932
239	0xbc35f7bd	-0.011106429
240	0xbd763205	-0.060106296
241	0x3d85dd32	0.0653633
242	0xbda0c5e3	-0.07850244
243	0x3d19ff90	0.03759724
244	0xbdbedccc	-0.093194574
245	0xbda489e7	-0.08034115
246	0xbdba112b	-0.09085306
247	0xbcf8c768	-0.030368522
248	0xbdec49f8	-0.11537546
249	0x3e14d944	0.14536005
250	0xbe18d550	-0.14925122
251	0x3d819808	0.06327826
252	0xbddfe502	-0.10932352
253	0x3d683de9	0.056699667
254	0x3dab5c44	0.08367208
255	0x3d8b5162	0.06802632

fc.f6.bias f4 [84]
0	0xbd3a7718	-0.045523733
1	0xbe0aa7ed	-0.13540621
2	0x3d306877	0.043068375
3	0x3da5bb49	0.080923624
4	0xbbe55404	-0.006998541
5	0x3d9536d6	0.0728585
6	0x3c208faf	0.009799882
7	0x3d6ae936	0.057351314
8	0xbdc1d591	-0.09464563
9	0x3d37da0a	0.044885673
10	0xbe17859e	-0.14797065
11	0x3d6e64e9	0.058201704
12	0x3d8475ef	0.064678065
13	0xbda24348	-0.07922989
14	0xbd577fd1	-0.05261213
15	0x3d0a3987	0.03374627
16	0xbd215863	-0.039390933
17	0x3c068d54	0.008212406
18	0xbdc86e13	-0.0978662
19	0xbda4ece0	-0.08052993
20	0x3d38ccf0	0.04511732
21	0x3cdf6d88	0.027273908
22	0xbd479c0c	-0.048732802
23	0xbe0ee52e	-0.13954613
24	0x3d55148c	0.05202155
25	0xbcd1cc20	-0.02561003
26	0x3cd9ef3c	0.026603334
27	0x3d8d9ad7	0.06914299
28	0xbd4de5d6	-0.050268017
29	0x3d4289c9	0.047494683
30	0xbbac11be	-0.0052511385
31	0xbd859382	-0.065222755
32	0x3d982c5b	0.07430335
33	0x3d695dbc	0.056974158
34	0xbd4c1a92	-0.049830027
35	0x3d90ff0f	0.070798986
36	0xbddab5a0	-0.106791735
37	0xbe3850cc	-0.17999572
38	0x3bcb8f7a	0.006212172
39	0xbd526678	-0.051367253
40	0xbd31f45c	-0.04344593
41	0xbe0357be	-0.1282644
42	0x3e0e4145	0.13892086
43	0x3d0eb623	0.034841668
44	0xbdd68149	-0.10473878
45	0xbc32ac74	-0.010905374
46	0x3d04ac94	0.032391146
47	0xbdb4dfdb	-0.088317595
48	0xbddda502	-0.10822488
49	0xbd131cc3	-0.0359161
50	0xbcbbc958	-0.022923157
51	0x3d92432d	0.07141719
52	0x39c77441	0.00038042854
53	0xbd3b8dcf	-0.045789536
54	0x3c5b4f3f	0.013385593
55	0x3d9c7459	0.07639379
56	0x3c06f169	0.008236268
57	0xbdcdd34c	-0.10050067
58	0xbc0ac73b	-0.008470352
59	0xbd8c2d25	-0.06844548
60	0x3c8b813f	0.017029403
61	0x3e2be8cf	0.16788028
62	0x3dd16991	0.10225213
63	0xbc08b4a3	-0.008343848
64	0xbc888331	-0.01666412
65	0xbdb755b2	-0.08951892
66	0x3bc0da00	0.0058853626
67	0xbb25cb60	-0.0025298223
68	0x3d88ec99	0.066857524
69	0x3e11944b	0.14216726
70	0xbc3e7a82	-0.011625888
71	0x3e1a242f	0.15052865
72	0x3cf51f8b	0.029922267
73	0x3e1c01ae	0.15235016
74	0x3cf0e0db	0.029404094
75	0xbd838f5d	-0.06423829
76	0x3c321420	0.010869056
77	0x3da1b012	0.07894911
78	0x3d12aa98	0.035807222
79	0x3c0dfcdc	0.008666243
80	0xbd7006c3	-0.0586002
81	0x3c5fb349	0.013653585
82	0xbd174229	-0.03692833
83	0xbc3b1df6	-0.011420717

fc.f7.weight f4 [10, 84]
0	0xbe1fb883	-0.1559773
1	0xbe09328e	-0.13398191
2	0x3c98d111	0.018654378
3	0xbd3ef5ee	-0.046621256
4	0xbb930ddd	-0.0044877366
5	0xbda83649	-0.08213479
6	0x3c86e0a0	0.016464531
7	0xbe105f07	-0.1409875
8	0xbddd72c9	-0.10812909
9	0x3c1d38c1	0.009596051
10	0xbd5dbe8b	-0.054136794
11	0xbd563761	-0.052298907
12	0x3c81274b	0.015765807
13	0xbe95ec0c	-0.29281652
14	0x3d3aae49	0.045576368
15	0x3de26f7a	0.11056419
16	0xbdc35a24	-0.09538677
17	0xbc4a10e0	-0.012333125
18	0xbd72d488	-0.059284717
19	0x3db418ee	0.087938175
20	0xbe15de47	-0.14635573
21	0xbd552c13	-0.052043986
22	0xbdd0f0bc	-0.102021664
23	0x3de5b42c	0.11216006
24	0xbc9680f6	-0.01837204
25	0xbe1d74a5	-0.15376528
26	0xbe2f4bef	-0.1711881
27	0xbe004b63	-0.12528758
28	0x3e3e3e01	0.1857834
29	0xbe4e528b	-0.20148675
30	0x3c0751cf	0.008259251
31	0x3da61456	0.081093475
32	0xbe396344	-0.18104273
33	0xbe146ba5	-0.14494188
34	0x3c8b23ac	0.016984783
35	0x3d706330	0.058688343
36	0xbd97af7a	-0.074065164
37	0xbd7bf086	-0.061508678
38	0xbd52abea	-0.05143348
39	0x3d214bb3	0.039378833
40	0xbdb16125	-0.08661107
41	0x3e1d7310	0.15375924
42	0xbdbb88b1	-0.09156931
43	0xbd9bd7bd	-0.07609508
44	0xbdaf891c	-0.085710734
45	0xbe398540	-0.18117237
46	0x3dbf5890	0.09343064
47	0x3e3004c7	0.17189322
48	0x3dde0560	0.10840869
49	0x3d8bf3b4	0.06833592
50	0xbe301f5e	-0.17199466
51	0x3d300285	0.042971153
52	0xbe600022	-0.2187505
53	0xbe071136	-0.13190159
54	0xbdeb721c	-0.11496374
55	0xbe2bee54	-0.16790134
56	0x3dbbe1c8	0.09173924
57	0x3e1d35c2	0.15352538
58	0x3d292fac	0.04130523
59	0x3d837bfb	0.06420132
60	0x3e2cb479	0.1686572
61	0x3dd87071	0.105683215
62	0xbe2c4b95	-0.16825707
63	0x3dc3b26a	0.09555514
64	0xbdae88f2	-0.08522214
65	0xbcb5448f	-0.022127418
66	0xbd4d573c	-0.05013202
67	0xbd828098	-0.063721836
68	0x3c211924	0.009832654
69	0xbcf7c704	-0.030246265
70	0xbead70ec	-0.33875215
71	0x3d2b0f7c	0.041762814
72	0xbc65a258	-0.014015757
73	0xbe41d9a3	-0.18930678
74	0xbe1206ed	-0.14260454
75	0x3bc85be4	0.00611447
76	0x3cc78cdd	0.024359161
77	0x3d5a010c	0.053223655
78	0xbe62e64f	-0.22158168
79	0xbe36530d	-0.17805119
80	0xbe3bbaa9	-0.18332924
81	0x3d9554b3	0.07291546
82	0xbe4cb1ce	-0.19989702
83	0x3d790413	0.0607949
84	0xbe2c1689	-0.16805471
85	0xbd96292d	-0.073320724
86	0xbe2e187b	-0.17001526
87	0xbe5606db	-0.20901053
88	0x3d8caf2a	0.068693474
89	0x3d5f6e1a	0.05454836
90	0x3cd25d9b	0.0256794
91	0x3e0d61a3	0.13806777
92	0x3d0b510b	0.034012835
93	0x3e0e8fff	0.13922118
94	0xbdbde494	-0.092721134
95	0x3db67ef5	0.08910934
96	0x3e242a9a	0.16031876
97	0xbea03b56	-0.3129527
98	0x3df7499a	0.12074585
99	0xbe630702	-0.22170642
100	0xbdd59cb7	-0.104302816
101	0x3d0c23a8	0.034213692
102	0x3e191b1b	0.14951746
103	0xbe2a3e94	-0.16625434
104	0xbe852d26	-0.26011008
105	0xbd479801	-0.048728947
106	0x3ca31053	0.019905245
107	0xbe1ff440	-0.15620518
108	0x3e24a701	0.16079332
109	0xbdefce5c	-0.11709282
110	0x3c952f07	0.018210901
111	0xbd2a699c	-0.041604623
112	0xbbf46abd	-0.0074590133
113	0x3cbc463b	0.022982707
114	0xbe255c09	-0.1614839
115	0x3dd9ede5	0.10641078
116	0x3dfa894c	0.122332186
117	0xbedc1f4e	-0.42992634
118	0xbcf756c9	-0.03019275
119	0x3c30e6c9	0.010797211
120	0x3d813f27	0.063108735
121	0x3d6bbdb2	0.057553954
122	0x3d3b7383	0.045764457
123	0x3d808b7d	0.06276605
124	0x3e22174f	0.15829204
125	0xbe598195	-0.21240838
126	0x3c568218	0.01309254
127	0xbe12b111	-0.14325358
128	0xbc94941f	-0.018137036
129	0x3dc11655	0.094280876
130	0xbe07b2c2	-0.13251784
131	0x3d9a4cf2	0.075342074
132	0x3dba92e1	0.09110046
133	0x3dd4082b	0.103531204
134	0x3d4a5612	0.04939849
135	0xbe8747a3	-0.26421842
136	0x3de28706	0.1106091
137	0x3b0f3ea5	0.0021857407
138	0xbe43c884	-0.1911946
139	0xbd30d120	-0.043168187
140	0xbdb1d37a	-0.08682914
141	0xbd340d73	-0.04395814
142	0xbe72b736	-0.23702702
143	0xbd983ca4	-0.07433441
144	0xbe388e15	-0.1802295
145	0x3dba417e	0.09094523
146	0xbdf5e92c	-0.12007365
147	0xbe7ad4cb	-0.24495237
148	0x3d6080f0	0.054810464
149	0x3d7f00b7	0.06225654
150	0x3e39187a	0.18075743
151	0x3de5a7df	0.112136595
152	0x3dbee7c6	0.09321551
153	0x3d499edc	0.049223766
154	0xbda7d576	-0.08195011
155	0x3c347406	0.01101399
156	0x3d32380f	0.043510493
157	0x3d4c274c	0.049842164
158	0xbe138e6e	-0.14409801
159	0x3cbd7c4c	0.023130558
160	0xbe80d826	-0.25164908
161	0xbe09c5e7	-0.134544
162	0x3c99c3e8	0.018770173
163	0x3d90987e	0.070603356
164	0x3cff3c70	0.031156749
165	0x3d696ea8	0.056990296
166	0xbe162eb0	-0.14666247
167	0xbe72b5de	-0.2370219
168	0xbced76ff	-0.028987406
169	0xbde3446f	-0.11097037
170	0x3dfb7d4d	0.122797586
171	0xbe6bdfc1	-0.23034574
172	0x3de07011	0.10958875
173	0x3db39cc3	0.08770134
174	0x3da60b4f	0.08107626
175	0x3e06346b	0.13105933
176	0x3d3e5557	0.046468105
177	0x3c1457d7	0.009054146
178	0x3d1ab563	0.03777064
179	0xbd2938a8	-0.041313797
180	0xbd7b07fa	-0.061286904
181	0xbe45d904	-0.19321066
182	0xbdb89d02	-0.09014322
183	0xbd072fd0	-0.033004582
184	0x3dc3c80f	0.095596425
185	0x3d3829b1	0.044961635
186	0xbe08bb97	-0.1335281
187	0xbb8c0be4	-0.0042738784
188	0xbd6a901f	-0.05726635
189	0xbd279b72	-0.04091973
190	0x3e0ee6cb	0.13955228
191	0x3e125372	0.14289644
192	0xbda20e6b	-0.07912906
193	0xbc21e057	-0.009880147
194	0x3e20b557	0.15694176
195	0x3e024407	0.12721263
196	0x3d305af9	0.04305551
197	0x3dfb6d1c	0.1227667
198	0xbda19d7e	-0.078913674
199	0x3ba382cd	0.004989958
200	0xbe61b970	-0.22043395
201	0xbea94935	-0.33063665
202	0xbcb0d739	-0.021587001
203	0xbd93cc90	-0.072167516
204	0xbd084d15	-0.033276636
205	0xbd97c246	-0.074101016
206	0xbe22a709	-0.15884031
207	0xbe1433b2	-0.14472845
208	0xbe003a9f	-0.12522362
209	0x3d6de215	0.058076937
210	0x3df21cd3	0.11821904
211	0x3df76abb	0.12080904
212	0xbde1f722	-0.11033465
213	0x3d19dae5	0.03756227
214	0xbdabfe3b	-0.083981
215	0x3d51b578	0.051198453
216	0x3d3b055a	0.0456594
217	0xbd2c458b	-0.04205851
218	0x3d3b0bd7	0.04566559
219	0x3e3dae95	0.18523629
220	0x3d015b9b	0.031581502
221	0x3d5f0ad1	0.054453675
222	0xbe997f99	-0.29980162
223	0x3d464af9	0.048411343
224	0x3ce0cb38	0.027440652
225	0x3d16f036	0.036850177
226	0xbdeec053	-0.11657777
227	0xbe815b96	-0.25265187
228	0x3d444cec	0.04792492
229	0xbc6dc9dc	-0.014513459
230	0xbe1627cc	-0.14663619
231	0xbe1c71b7	-0.15277754
232	0xbd91e0c7	-0.07122951
233	0xbd7c6aef	-0.061625417
234	0xbe6c487e	-0.23074529
235	0xbdb69a31	-0.089161284
236	0x3e4dea43	0.20108895
237	0xbdd5ad75	-0.10433475
238	0xbc98f3d3	-0.018670952
239	0x3d95f1c9	0.073215075
240	0x3d530f1d	0.051528085
241	0xbc007163	-0.0078395335
242	0x3e08a099	0.13342513
243	0x3e0b25aa	0.13588586
244	0xbd17ea29	-0.037088547
245	0xbdde0a71	-0.10841835
246	0x3d0c5b7a	0.034266926
247	0xbcfbca6d	-0.030736173
248	0xbe4b2d82	-0.19841579
249	0xbe1d47ba	-0.15359393
250	0x3e2462dc	0.16053337
251	0xbdcebb93	-0.10094371
252	0xbcb2273a	-0.02174722
253	0xbb95c029	-0.0045700264
254	0xbd3bd3bb	-0.04585622
255	0xbde19ad0	-0.11015856

fc.f7.bias f4 [10]
0	0x3c476904	0.012171034
1	0xbd4dd36c	-0.050250456
2	0xbcb8aaba	-0.022542346
3	0x3d60a0c8	0.054840833
4	0xbd92d3aa	-0.07169278
5	0x3b0aff9d	0.0021209486
6	0x3d2e9b1c	0.042628393
7	0xbd7d66d4	-0.061865643
8	0x3cb87732	0.022517774
9	0x3d3644b4	0.044499114
